…
4M [00:00<00:00, 11.6MB/s]     58%|#####7    | 7.77M/13.4M [00:00<00:00, 11.6MB/s]     66%|######6   | 8.88M/13.4M [00:00<00:00, 11.5MB/s]     74%|#######4  | 9.98M/13.4M [00:00<00:00, 11.5MB/s]     83%|########2 | 11.1M/13.4M [00:01<00:00, 11.5MB/s]     91%|######### | 12.2M/13.4M [00:01<00:00, 11.4MB/s]     99%|#########9| 13.3M/13.4M [00:01<00:00, 11.5MB/s]    100%|##########| 13.4M/13.4M [00:01<00:00, 11.5MB/s]

    SSD(
      (backbone): SSDLiteFeatureExtractorMobileNet(
        (features): Sequential(
          (0): Sequential(
            (0): ConvNormActivation(
              (0): Conv2d(3, 16, kernel_size=(3, 3), stride=(2, 2), padding=(1, 1), bias=False)
              (1): BatchNorm2d(16, eps=0.001, momentum=0.03, affine=True, track_running_stats=True)
              (2): Hardswish()
            )
            (1): InvertedResidual(
              (block): Sequential(
                (0): ConvNormActivation(
                  (0): Conv2d(16, 16, kernel_size=(3, 3), stride=(1, 1), padding=(1, 1), groups=16, bias=False)
                  (1): BatchNorm2d(16, eps=0.001, momentum=0.03, affine=True, track_running_stats=True)
                  (2): ReLU(inplace=True)
                )
                (1): ConvNormActivation(
                  (0): Conv2d(16, 16, kernel_size=(1, 1), stride=(1, 1), bias=False)
                  (1): BatchNorm2d(16, eps=0.001, momentum=0.03, affine=True, track_running_stats=True)
                )
              )
            )
            (2): InvertedResidual(
              (block): Sequential(
                (0): ConvNormActivation(
                  (0): Conv2d(16, 64, kernel_size=(1, 1), stride=(1, 1), bias=False)
                  (1): BatchNorm2d(64, eps=0.001, momentum=0.03, affine=True, track_running_stats=True)
                  (2): ReLU(inplace=True)
                )
                (1): ConvNormActivation(
                  (0): Conv2d(64, 64, kernel_size=(3, 3), stride=(2, 2), padding=(1, 1), groups=64, bias=False)
                  (1): BatchNorm2d(64, eps=0.001, momentum=0.03, affine=True, track_running_stats=True)
                  (2): ReLU(inplace=True)
                )
                (2): ConvNormActivation(
                  (0): Conv2d(64, 24, kernel_size=(1, 1), stride=(1, 1), bias=False)
                  (1): BatchNorm2d(24, eps=0.001, momentum=0.03, affine=True, track_running_stats=True)
                )
              )
            )
            (3): InvertedResidual(
              (block): Sequential(
                (0): ConvNormActivation(
                  (0): Conv2d(24, 72, kernel_size=(1, 1), stride=(1, 1), bias=False)
                  (1): BatchNorm2d(72, eps=0.001, momentum=0.03, affine=True, track_running_stats=True)
                  (2): ReLU(inplace=True)
                )
                (1): ConvNormActivation(
                  (0): Conv2d(72, 72, kernel_size=(3, 3), stride=(1, 1), padding=(1, 1), groups=72, bias=False)
                  (1): BatchNorm2d(72, eps=0.001, momentum=0.03, affine=True, track_running_stats=True)
                  (2): ReLU(inplace=True)
                )
                (2): ConvNormActivation(
                  (0): Conv2d(72, 24, kernel_size=(1, 1), stride=(1, 1), bias=False)
                  (1): BatchNorm2d(24, eps=0.001, momentum=0.03, affine=True, track_running_stats=True)
                )
              )
            )
            (4): InvertedResidual(
              (block): Sequential(
                (0): ConvNormActivation(
                  (0): Conv2d(24, 72, kernel_size=(1, 1), stride=(1, 1), bias=False)
                  (1): BatchNorm2d(72, eps=0.001, momentum=0.03, affine=True, track_running_stats=True)
                  (2): ReLU(inplace=True)
                )
                (1): ConvNormActivation(
                  (0): Conv2d(72, 72, kernel_size=(5, 5), stride=(2, 2), padding=(2, 2), groups=72, bias=False)
                  (1): BatchNorm2d(72, eps=0.001, momentum=0.03, affine=True, track_running_stats=True)
                  (2): ReLU(inplace=True)
                )
                (2): SqueezeExcitation(
                  (avgpool): AdaptiveAvgPool2d(output_size=1)
                  (fc1): Conv2d(72, 24, kernel_size=(1, 1), stride=(1, 1))
                  (fc2): Conv2d(24, 72, kernel_size=(1, 1), stride=(1, 1))
                  (activation): ReLU()
                  (scale_activation): Hardsigmoid()
                )
                (3): ConvNormActivation(
                  (0): Conv2d(72, 40, kernel_size=(1, 1), stride=(1, 1), bias=False)
                  (1): BatchNorm2d(40, eps=0.001, momentum=0.03, affine=True, track_running_stats=True)
                )
              )
            )
            (5): InvertedResidual(
              (block): Sequential(
                (0): ConvNormActivation(
                  (0): Conv2d(40, 120, kernel_size=(1, 1), stride=(1, 1), bias=False)
                  (1): BatchNorm2d(120, eps=0.001, momentum=0.03, affine=True, track_running_stats=True)
                  (2): ReLU(inplace=True)
                )
                (1): ConvNormActivation(
                  (0): Conv2d(120, 120, kernel_size=(5, 5), stride=(1, 1), padding=(2, 2), groups=120, bias=False)
                  (1): BatchNorm2d(120, eps=0.001, momentum=0.03, affine=True, track_running_stats=True)
                  (2): ReLU(inplace=True)
                )
                (2): SqueezeExcitation(
                  (avgpool): AdaptiveAvgPool2d(output_size=1)
                  (fc1): Conv2d(120, 32, kernel_size=(1, 1), stride=(1, 1))
                  (fc2): Conv2d(32, 120, kernel_size=(1, 1), stride=(1, 1))
                  (activation): ReLU()
                  (scale_activation): Hardsigmoid()
                )
                (3): ConvNormActivation(
                  (0): Conv2d(120, 40, kernel_size=(1, 1), stride=(1, 1), bias=False)
                  (1): BatchNorm2d(40, eps=0.001, momentum=0.03, affine=True, track_running_stats=True)
                )
              )
            )
            (6): InvertedResidual(
              (block): Sequential(
                (0): ConvNormActivation(
                  (0): Conv2d(40, 120, kernel_size=(1, 1), stride=(1, 1), bias=False)
                  (1): BatchNorm2d(120, eps=0.001, momentum=0.03, affine=True, track_running_stats=True)
                  (2): ReLU(inplace=True)
                )
                (1): ConvNormActivation(
                  (0): Conv2d(120, 120, kernel_size=(5, 5), stride=(1, 1), padding=(2, 2), groups=120, bias=False)
                  (1): BatchNorm2d(120, eps=0.001, momentum=0.03, affine=True, track_running_stats=True)
                  (2): ReLU(inplace=True)
                )
                (2): SqueezeExcitation(
                  (avgpool): AdaptiveAvgPool2d(output_size=1)
                  (fc1): Conv2d(120, 32, kernel_size=(1, 1), stride=(1, 1))
                  (fc2): Conv2d(32, 120, kernel_size=(1, 1), stride=(1, 1))
                  (activation): ReLU()
                  (scale_activation): Hardsigmoid()
                )
                (3): ConvNormActivation(
                  (0): Conv2d(120, 40, kernel_size=(1, 1), stride=(1, 1), bias=False)
                  (1): BatchNorm2d(40, eps=0.001, momentum=0.03, affine=True, track_running_stats=True)
                )
              )
            )
            (7): InvertedResidual(
              (block): Sequential(
                (0): ConvNormActivation(
                  (0): Conv2d(40, 240, kernel_size=(1, 1), stride=(1, 1), bias=False)
                  (1): BatchNorm2d(240, eps=0.001, momentum=0.03, affine=True, track_running_stats=True)
                  (2): Hardswish()
                )
                (1): ConvNormActivation(
                  (0): Conv2d(240, 240, kernel_size=(3, 3), stride=(2, 2), padding=(1, 1), groups=240, bias=False)
                  (1): BatchNorm2d(240, eps=0.001, momentum=0.03, affine=True, track_running_stats=True)
                  (2): Hardswish()
                )
                (2): ConvNormActivation(
                  (0): Conv2d(240, 80, kernel_size=(1, 1), stride=(1, 1), bias=False)
                  (1): BatchNorm2d(80, eps=0.001, momentum=0.03, affine=True, track_running_stats=True)
                )
              )
            )
            (8): InvertedResidual(
              (block): Sequential(
                (0): ConvNormActivation(
                  (0): Conv2d(80, 200, kernel_size=(1, 1), stride=(1, 1), bias=False)
                  (1): BatchNorm2d(200, eps=0.001, momentum=0.03, affine=True, track_running_stats=True)
                  (2): Hardswish()
                )
                (1): ConvNormActivation(
                  (0): Conv2d(200, 200, kernel_size=(3, 3), stride=(1, 1), padding=(1, 1), groups=200, bias=False)
                  (1): BatchNorm2d(200, eps=0.001, momentum=0.03, affine=True, track_running_stats=True)
                  (2): Hardswish()
                )
                (2): ConvNormActivation(
                  (0): Conv2d(200, 80, kernel_size=(1, 1), stride=(1, 1), bias=False)
                  (1): BatchNorm2d(80, eps=0.001, momentum=0.03, affine=True, track_running_stats=True)
                )
              )
            )
            (9): InvertedResidual(
              (block): Sequential(
                (0): ConvNormActivation(
                  (0): Conv2d(80, 184, kernel_size=(1, 1), stride=(1, 1), bias=False)
                  (1): BatchNorm2d(184, eps=0.001, momentum=0.03, affine=True, track_running_stats=True)
                  (2): Hardswish()
                )
                (1): ConvNormActivation(
                  (0): Conv2d(184, 184, kernel_size=(3, 3), stride=(1, 1), padding=(1, 1), groups=184, bias=False)
                  (1): BatchNorm2d(184, eps=0.001, momentum=0.03, affine=True, track_running_stats=True)
                  (2): Hardswish()
                )
                (2): ConvNormActivation(
                  (0): Conv2d(184, 80, kernel_size=(1, 1), stride=(1, 1), bias=False)
                  (1): BatchNorm2d(80, eps=0.001, momentum=0.03, affine=True, track_running_stats=True)
                )
              )
            )
            (10): InvertedResidual(
              (block): Sequential(
                (0): ConvNormActivation(
                  (0): Conv2d(80, 184, kernel_size=(1, 1), stride=(1, 1), bias=False)
                  (1): BatchNorm2d(184, eps=0.001, momentum=0.03, affine=True, track_running_stats=True)
                  (2): Hardswish()
                )
                (1): ConvNormActivation(
                  (0): Conv2d(184, 184, kernel_size=(3, 3), stride=(1, 1), padding=(1, 1), groups=184, bias=False)
                  (1): BatchNorm2d(184, eps=0.001, momentum=0.03, affine=True, track_running_stats=True)
                  (2): Hardswish()
                )
                (2): ConvNormActivation(
                  (0): Conv2d(184, 80, kernel_size=(1, 1), stride=(1, 1), bias=False)
                  (1): BatchNorm2d(80, eps=0.001, momentum=0.03, affine=True, track_running_stats=True)
                )
              )
            )
            (11): InvertedResidual(
              (block): Sequential(
                (0): ConvNormActivation(
                  (0): Conv2d(80, 480, kernel_size=(1, 1), stride=(1, 1), bias=False)
                  (1): BatchNorm2d(480, eps=0.001, momentum=0.03, affine=True, track_running_stats=True)
                  (2): Hardswish()
                )
                (1): ConvNormActivation(
                  (0): Conv2d(480, 480, kernel_size=(3, 3), stride=(1, 1), padding=(1, 1), groups=480, bias=False)
                  (1): BatchNorm2d(480, eps=0.001, momentum=0.03, affine=True, track_running_stats=True)
                  (2): Hardswish()
                )
                (2): SqueezeExcitation(
                  (avgpool): AdaptiveAvgPool2d(output_size=1)
                  (fc1): Conv2d(480, 120, kernel_size=(1, 1), stride=(1, 1))
                  (fc2): Conv2d(120, 480, kernel_size=(1, 1), stride=(1, 1))
                  (activation): ReLU()
                  (scale_activation): Hardsigmoid()
                )
                (3): ConvNormActivation(
                  (0): Conv2d(480, 112, kernel_size=(1, 1), stride=(1, 1), bias=False)
                  (1): BatchNorm2d(112, eps=0.001, momentum=0.03, affine=True, track_running_stats=True)
                )
              )
            )
            (12): InvertedResidual(
              (block): Sequential(
                (0): ConvNormActivation(
                  (0): Conv2d(112, 672, kernel_size=(1, 1), stride=(1, 1), bias=False)
                  (1): BatchNorm2d(672, eps=0.001, momentum=0.03, affine=True, track_running_stats=True)
                  (2): Hardswish()
                )
                (1): ConvNormActivation(
                  (0): Conv2d(672, 672, kernel_size=(3, 3), stride=(1, 1), padding=(1, 1), groups=672, bias=False)
                  (1): BatchNorm2d(672, eps=0.001, momentum=0.03, affine=True, track_running_stats=True)
                  (2): Hardswish()
                )
                (2): SqueezeExcitation(
                  (avgpool): AdaptiveAvgPool2d(output_size=1)
                  (fc1): Conv2d(672, 168, kernel_size=(1, 1), stride=(1, 1))
                  (fc2): Conv2d(168, 672, kernel_size=(1, 1), stride=(1, 1))
                  (activation): ReLU()
                  (scale_activation): Hardsigmoid()
                )
                (3): ConvNormActivation(
                  (0): Conv2d(672, 112, kernel_size=(1, 1), stride=(1, 1), bias=False)
                  (1): BatchNorm2d(112, eps=0.001, momentum=0.03, affine=True, track_running_stats=True)
                )
              )
            )
            (13): ConvNormActivation(
              (0): Conv2d(112, 672, kernel_size=(1, 1), stride=(1, 1), bias=False)
              (1): BatchNorm2d(672, eps=0.001, momentum=0.03, affine=True, track_running_stats=True)
              (2): Hardswish()
            )
          )
          (1): Sequential(
            (0): Sequential(
              (1): ConvNormActivation(
                (0): Conv2d(672, 672, kernel_size=(5, 5), stride=(2, 2), padding=(2, 2), groups=672, bias=False)
                (1): BatchNorm2d(672, eps=0.001, momentum=0.03, affine=True, track_running_stats=True)
                (2): Hardswish()
              )
              (2): SqueezeExcitation(
                (avgpool): AdaptiveAvgPool2d(output_size=1)
                (fc1): Conv2d(672, 168, kernel_size=(1, 1), stride=(1, 1))
                (fc2): Conv2d(168, 672, kernel_size=(1, 1), stride=(1, 1))
                (activation): ReLU()
                (scale_activation): Hardsigmoid()
              )
              (3): ConvNormActivation(
                (0): Conv2d(672, 80, kernel_size=(1, 1), stride=(1, 1), bias=False)
                (1): BatchNorm2d(80, eps=0.001, momentum=0.03, affine=True, track_running_stats=True)
              )
            )
            (1): InvertedResidual(
              (block): Sequential(
                (0): ConvNormActivation(
                  (0): Conv2d(80, 480, kernel_size=(1, 1), stride=(1, 1), bias=False)
                  (1): BatchNorm2d(480, eps=0.001, momentum=0.03, affine=True, track_running_stats=True)
                  (2): Hardswish()
                )
                (1): ConvNormActivation(
                  (0): Conv2d(480, 480, kernel_size=(5, 5), stride=(1, 1), padding=(2, 2), groups=480, bias=False)
                  (1): BatchNorm2d(480, eps=0.001, momentum=0.03, affine=True, track_running_stats=True)
                  (2): Hardswish()
                )
                (2): SqueezeExcitation(
                  (avgpool): AdaptiveAvgPool2d(output_size=1)
                  (fc1): Conv2d(480, 120, kernel_size=(1, 1), stride=(1, 1))
                  (fc2): Conv2d(120, 480, kernel_size=(1, 1), stride=(1, 1))
                  (activation): ReLU()
                  (scale_activation): Hardsigmoid()
                )
                (3): ConvNormActivation(
                  (0): Conv2d(480, 80, kernel_size=(1, 1), stride=(1, 1), bias=False)
                  (1): BatchNorm2d(80, eps=0.001, momentum=0.03, affine=True, track_running_stats=True)
                )
              )
            )
            (2): InvertedResidual(
              (block): Sequential(
                (0): ConvNormActivation(
                  (0): Conv2d(80, 480, kernel_size=(1, 1), stride=(1, 1), bias=False)
                  (1): BatchNorm2d(480, eps=0.001, momentum=0.03, affine=True, track_running_stats=True)
                  (2): Hardswish()
                )
                (1): ConvNormActivation(
                  (0): Conv2d(480, 480, kernel_size=(5, 5), stride=(1, 1), padding=(2, 2), groups=480, bias=False)
                  (1): BatchNorm2d(480, eps=0.001, momentum=0.03, affine=True, track_running_stats=True)
                  (2): Hardswish()
                )
                (2): SqueezeExcitation(
                  (avgpool): AdaptiveAvgPool2d(output_size=1)
                  (fc1): Conv2d(480, 120, kernel_size=(1, 1), stride=(1, 1))
                  (fc2): Conv2d(120, 480, kernel_size=(1, 1), stride=(1, 1))
                  (activation): ReLU()
                  (scale_activation): Hardsigmoid()
                )
                (3): ConvNormActivation(
                  (0): Conv2d(480, 80, kernel_size=(1, 1), stride=(1, 1), bias=False)
                  (1): BatchNorm2d(80, eps=0.001, momentum=0.03, affine=True, track_running_stats=True)
                )
              )
            )
            (3): ConvNormActivation(
              (0): Conv2d(80, 480, kernel_size=(1, 1), stride=(1, 1), bias=False)
              (1): BatchNorm2d(480, eps=0.001, momentum=0.03, affine=True, track_running_stats=True)
              (2): Hardswish()
            )
          )
        )
        (extra): ModuleList(
          (0): Sequential(
            (0): ConvNormActivation(
              (0): Conv2d(480, 256, kernel_size=(1, 1), stride=(1, 1), bias=False)
              (1): BatchNorm2d(256, eps=0.001, momentum=0.03, affine=True, track_running_stats=True)
              (2): ReLU6(inplace=True)
            )
            (1): ConvNormActivation(
              (0): Conv2d(256, 256, kernel_size=(3, 3), stride=(2, 2), padding=(1, 1), groups=256, bias=False)
              (1): BatchNorm2d(256, eps=0.001, momentum=0.03, affine=True, track_running_stats=True)
              (2): ReLU6(inplace=True)
            )
            (2): ConvNormActivation(
              (0): Conv2d(256, 512, kernel_size=(1, 1), stride=(1, 1), bias=False)
              (1): BatchNorm2d(512, eps=0.001, momentum=0.03, affine=True, track_running_stats=True)
              (2): ReLU6(inplace=True)
            )
          )
          (1): Sequential(
            (0): ConvNormActivation(
              (0): Conv2d(512, 128, kernel_size=(1, 1), stride=(1, 1), bias=False)
              (1): BatchNorm2d(128, eps=0.001, momentum=0.03, affine=True, track_running_stats=True)
              (2): ReLU6(inplace=True)
            )
            (1): ConvNormActivation(
              (0): Conv2d(128, 128, kernel_size=(3, 3), stride=(2, 2), padding=(1, 1), groups=128, bias=False)
              (1): BatchNorm2d(128, eps=0.001, momentum=0.03, affine=True, track_running_stats=True)
              (2): ReLU6(inplace=True)
            )
            (2): ConvNormActivation(
              (0): Conv2d(128, 256, kernel_size=(1, 1), stride=(1, 1), bias=False)
              (1): BatchNorm2d(256, eps=0.001, momentum=0.03, affine=True, track_running_stats=True)
              (2): ReLU6(inplace=True)
            )
          )
          (2): Sequential(
            (0): ConvNormActivation(
              (0): Conv2d(256, 128, kernel_size=(1, 1), stride=(1, 1), bias=False)
              (1): BatchNorm2d(128, eps=0.001, momentum=0.03, affine=True, track_running_stats=True)
              (2): ReLU6(inplace=True)
            )
            (1): ConvNormActivation(
              (0): Conv2d(128, 128, kernel_size=(3, 3), stride=(2, 2), padding=(1, 1), groups=128, bias=False)
              (1): BatchNorm2d(128, eps=0.001, momentum=0.03, affine=True, track_running_stats=True)
              (2): ReLU6(inplace=True)
            )
            (2): ConvNormActivation(
              (0): Conv2d(128, 256, kernel_size=(1, 1), stride=(1, 1), bias=False)
              (1): BatchNorm2d(256, eps=0.001, momentum=0.03, affine=True, track_running_stats=True)
              (2): ReLU6(inplace=True)
            )
          )
          (3): Sequential(
            (0): ConvNormActivation(
              (0): Conv2d(256, 64, kernel_size=(1, 1), stride=(1, 1), bias=False)
              (1): BatchNorm2d(64, eps=0.001, momentum=0.03, affine=True, track_running_stats=True)
              (2): ReLU6(inplace=True)
            )
            (1): ConvNormActivation(
              (0): Conv2d(64, 64, kernel_size=(3, 3), stride=(2, 2), padding=(1, 1), groups=64, bias=False)
              (1): BatchNorm2d(64, eps=0.001, momentum=0.03, affine=True, track_running_stats=True)
              (2): ReLU6(inplace=True)
            )
            (2): ConvNormActivation(
              (0): Conv2d(64, 128, kernel_size=(1, 1), stride=(1, 1), bias=False)
              (1): BatchNorm2d(128, eps=0.001, momentum=0.03, affine=True, track_running_stats=True)
              (2): ReLU6(inplace=True)
            )
          )
        )
      )
      (anchor_generator): DefaultBoxGenerator(aspect_ratios=[[2, 3], [2, 3], [2, 3], [2, 3], [2, 3], [2, 3]], clip=True, scales=[0.2, 0.35, 0.5, 0.65, 0.8, 0.95, 1.0], steps=None)
      (head): SSDLiteHead(
        (classification_head): SSDLiteClassificationHead(
          (module_list): ModuleList(
            (0): Sequential(
              (0): ConvNormActivation(
                (0): Conv2d(672, 672, kernel_size=(3, 3), stride=(1, 1), padding=(1, 1), groups=672, bias=False)
                (1): BatchNorm2d(672, eps=0.001, momentum=0.03, affine=True, track_running_stats=True)
                (2): ReLU6(inplace=True)
              )
              (1): Conv2d(672, 12, kernel_size=(1, 1), stride=(1, 1))
            )
            (1): Sequential(
              (0): ConvNormActivation(
                (0): Conv2d(480, 480, kernel_size=(3, 3), stride=(1, 1), padding=(1, 1), groups=480, bias=False)
                (1): BatchNorm2d(480, eps=0.001, momentum=0.03, affine=True, track_running_stats=True)
                (2): ReLU6(inplace=True)
              )
              (1): Conv2d(480, 12, kernel_size=(1, 1), stride=(1, 1))
            )
            (2): Sequential(
              (0): ConvNormActivation(
                (0): Conv2d(512, 512, kernel_size=(3, 3), stride=(1, 1), padding=(1, 1), groups=512, bias=False)
                (1): BatchNorm2d(512, eps=0.001, momentum=0.03, affine=True, track_running_stats=True)
                (2): ReLU6(inplace=True)
              )
              (1): Conv2d(512, 12, kernel_size=(1, 1), stride=(1, 1))
            )
            (3): Sequential(
              (0): ConvNormActivation(
                (0): Conv2d(256, 256, kernel_size=(3, 3), stride=(1, 1), padding=(1, 1), groups=256, bias=False)
                (1): BatchNorm2d(256, eps=0.001, momentum=0.03, affine=True, track_running_stats=True)
                (2): ReLU6(inplace=True)
              )
              (1): Conv2d(256, 12, kernel_size=(1, 1), stride=(1, 1))
            )
            (4): Sequential(
              (0): ConvNormActivation(
                (0): Conv2d(256, 256, kernel_size=(3, 3), stride=(1, 1), padding=(1, 1), groups=256, bias=False)
                (1): BatchNorm2d(256, eps=0.001, momentum=0.03, affine=True, track_running_stats=True)
                (2): ReLU6(inplace=True)
              )
              (1): Conv2d(256, 12, kernel_size=(1, 1), stride=(1, 1))
            )
            (5): Sequential(
              (0): ConvNormActivation(
                (0): Conv2d(128, 128, kernel_size=(3, 3), stride=(1, 1), padding=(1, 1), groups=128, bias=False)
                (1): BatchNorm2d(128, eps=0.001, momentum=0.03, affine=True, track_running_stats=True)
                (2): ReLU6(inplace=True)
              )
              (1): Conv2d(128, 12, kernel_size=(1, 1), stride=(1, 1))
            )
          )
        )
        (regression_head): SSDLiteRegressionHead(
          (module_list): ModuleList(
            (0): Sequential(
              (0): ConvNormActivation(
                (0): Conv2d(672, 672, kernel_size=(3, 3), stride=(1, 1), padding=(1, 1), groups=672, bias=False)
                (1): BatchNorm2d(672, eps=0.001, momentum=0.03, affine=True, track_running_stats=True)
                (2): ReLU6(inplace=True)
              )
              (1): Conv2d(672, 24, kernel_size=(1, 1), stride=(1, 1))
            )
            (1): Sequential(
              (0): ConvNormActivation(
                (0): Conv2d(480, 480, kernel_size=(3, 3), stride=(1, 1), padding=(1, 1), groups=480, bias=False)
                (1): BatchNorm2d(480, eps=0.001, momentum=0.03, affine=True, track_running_stats=True)
                (2): ReLU6(inplace=True)
              )
              (1): Conv2d(480, 24, kernel_size=(1, 1), stride=(1, 1))
            )
            (2): Sequential(
              (0): ConvNormActivation(
                (0): Conv2d(512, 512, kernel_size=(3, 3), stride=(1, 1), padding=(1, 1), groups=512, bias=False)
                (1): BatchNorm2d(512, eps=0.001, momentum=0.03, affine=True, track_running_stats=True)
                (2): ReLU6(inplace=True)
              )
              (1): Conv2d(512, 24, kernel_size=(1, 1), stride=(1, 1))
            )
            (3): Sequential(
              (0): ConvNormActivation(
                (0): Conv2d(256, 256, kernel_size=(3, 3), stride=(1, 1), padding=(1, 1), groups=256, bias=False)
                (1): BatchNorm2d(256, eps=0.001, momentum=0.03, affine=True, track_running_stats=True)
                (2): ReLU6(inplace=True)
              )
              (1): Conv2d(256, 24, kernel_size=(1, 1), stride=(1, 1))
            )
            (4): Sequential(
              (0): ConvNormActivation(
                (0): Conv2d(256, 256, kernel_size=(3, 3), stride=(1, 1), padding=(1, 1), groups=256, bias=False)
                (1): BatchNorm2d(256, eps=0.001, momentum=0.03, affine=True, track_running_stats=True)
                (2): ReLU6(inplace=True)
              )
              (1): Conv2d(256, 24, kernel_size=(1, 1), stride=(1, 1))
            )
            (5): Sequential(
              (0): ConvNormActivation(
                (0): Conv2d(128, 128, kernel_size=(3, 3), stride=(1, 1), padding=(1, 1), groups=128, bias=False)
                (1): BatchNorm2d(128, eps=0.001, momentum=0.03, affine=True, track_running_stats=True)
                (2): ReLU6(inplace=True)
              )
              (1): Conv2d(128, 24, kernel_size=(1, 1), stride=(1, 1))
            )
          )
        )
      )
      (transform): GeneralizedRCNNTransform(
          Normalize(mean=[0.5, 0.5, 0.5], std=[0.5, 0.5, 0.5])
          Resize(min_size=(320,), max_size=320, mode='bilinear')
      )
    )



.. GENERATED FROM PYTHON SOURCE LINES 205-208

Loading Pre-trained Weights
~~~~~~~~~~~~~~~~~~~~~~~~~~~
For this tutorial we will not include the training code itself, but will download and load pre-trained weights.
…
